submissions/shadowbeast0/model.pth (torch, 367146 bytes, 17 tensors)

conv1.weight f4 [64, 3, 7, 7]
000000 00 00 00 80 00 00 00 80 00 00 00 00 00 00 00 00
       -0.0 -0.0 0.0 0.0
000010 00 00 00 80 08 20 40 bd 00 00 00 80 00 00 00 00
       -0.0 -0.046905547 -0.0 0.0
000020 00 00 00 00 00 00 00 00 00 00 00 00 e4 02 b1 3d
       0.0 0.0 0.0 0.086431295
000030 00 00 00 00 00 00 00 80 00 00 00 00 00 00 00 80
       0.0 -0.0 0.0 -0.0
000040 48 db 5c bd a7 81 b0 bd 00 00 00 80 00 00 00 80
       -0.05392006 -0.08618479 -0.0 -0.0
000050 00 00 00 80 00 00 00 80 00 00 00 80 35 7a c0 bd
       -0.0 -0.0 -0.0 -0.09398309
000060 d7 ba a0 bd 7a d4 b3 bd a9 95 8e bd 00 00 00 80
       -0.07848137 -0.08780761 -0.06962139 -0.0
000070 00 00 00 80 00 00 00 80 00 00 00 80 00 00 00 00
       -0.0 -0.0 -0.0 0.0
000080 00 00 00 00 00 00 00 80 00 00 00 80 00 00 00 00
       0.0 -0.0 -0.0 0.0
000090 00 00 00 00 00 00 00 00 00 00 00 00 38 3f 8d 3d
       0.0 0.0 0.0 0.06896824
0000a0 00 00 00 80 ad 17 4f bd 00 00 00 00 00 00 00 80
       -0.0 -0.05055969 0.0 -0.0
0000b0 70 4e 6e bd 00 00 00 80 00 00 00 80 a2 00 6b bd
       -0.058180273 -0.0 -0.0 -0.05737365
0000c0 b1 12 41 bd 00 00 00 80 00 00 00 80 00 00 00 80
       -0.047136966 -0.0 -0.0 -0.0
0000d0 00 00 00 00 00 00 00 00 a5 55 9b bd 81 c9 81 bd
       0.0 0.0 -0.07584695 -0.06337262
0000e0 00 00 00 00 00 00 00 00 00 00 00 80 00 00 00 00
       0.0 0.0 -0.0 0.0
0000f0 f7 a6 dc 3d 00 00 00 00 00 00 00 00 00 00 00 00
       0.107740335 0.0 0.0 0.0
000100 00 00 00 80 26 1c 4b bd 3b 1a 94 bd 00 00 00 80
       -0.0 -0.04958739 -0.072315656 -0.0
000110 00 00 00 80 00 00 00 80 00 00 00 80 00 00 00 80
       -0.0 -0.0 -0.0 -0.0
000120 00 00 00 80 00 00 00 80 35 ae f4 bd 23 57 aa bd
       -0.0 -0.0 -0.1194729 -0.08317401
000130 c1 e2 5b bd 43 47 4d bd 00 00 00 00 00 00 00 00
       -0.053683046 -0.05011679 0.0 0.0
000140 00 00 00 00 00 00 00 80 00 00 00 80 00 00 00 00
       0.0 -0.0 -0.0 0.0
000150 00 00 00 00 4e 00 45 3d 00 00 00 00 00 00 00 00
       0.0 0.048095994 0.0 0.0
000160 43 a9 a8 3d 00 00 00 80 00 00 00 80 00 00 00 80
       0.08235409 -0.0 -0.0 -0.0
000170 00 00 00 80 00 00 00 00 00 00 00 80 00 00 00 80
       -0.0 0.0 -0.0 -0.0
000180 5b dd aa bd 20 b0 86 bd a2 d5 a9 bd 17 06 56 bd
       -0.083430015 -0.06576562 -0.082927 -0.0522519
000190 82 42 5b bd 00 00 00 00 00 00 00 80 00 00 00 80
       -0.053530224 0.0 -0.0 -0.0
0001a0 f1 ac bc bd 8e 5f 49 3d 24 3b 3f 3d 00 00 00 80
       -0.092126735 0.049163394 0.04668726 -0.0
0001b0 00 00 00 00 81 34 e5 3d 00 00 00 00 00 00 00 00
       0.0 0.11191655 0.0 0.0
0001c0 00 00 00 80 00 00 00 80 00 00 00 80 ff 31 52 bd
       -0.0 -0.0 -0.0 -0.05131721
0001d0 00 00 00 80 d1 6e 5e bd 00 00 00 00 00 00 00 80
       -0.0 -0.0543049 0.0 -0.0
0001e0 00 00 00 00 3e 17 82 bd 7f 41 4a bd 9e bf ee bd
       0.0 -0.06352089 -0.04937887 -0.11657642
0001f0 91 55 54 bd 00 00 00 80 00 00 00 80 00 00 00 80
       -0.051839415 -0.0 -0.0 -0.0
000200 00 00 00 00 00 00 00 00 00 00 00 80 00 00 00 80
       0.0 0.0 -0.0 -0.0
000210 00 00 00 80 00 00 00 00 00 00 00 00 00 00 00 00
       -0.0 0.0 0.0 0.0
000220 00 00 00 00 00 00 00 00 00 00 00 00 00 00 00 00
       0.0 0.0 0.0 0.0
000230 00 00 00 80 00 00 00 00 00 00 00 80 00 00 00 00
       -0.0 0.0 -0.0 0.0
000240 00 00 00 00 00 00 00 80 3a 6e 9f bd 00 00 00 80
       0.0 -0.0 -0.07784696 -0.0
000250 00 00 00 80 00 00 00 80 00 00 00 80 00 00 00 80
       -0.0 -0.0 -0.0 -0.0
000260 7c d8 3f bd 4c 0d 58 bd 00 00 00 80 00 00 00 00
       -0.046837315 -0.052747056 -0.0 0.0
000270 00 00 00 80 00 00 00 80 e6 2f 71 bd 00 00 00 80
       -0.0 -0.0 -0.05888357 -0.0
000280 00 00 00 80 00 00 00 00 00 00 00 00 00 00 00 80
       -0.0 0.0 0.0 -0.0
000290 00 00 00 80 00 00 00 80 00 00 00 80 00 00 00 80
       -0.0 -0.0 -0.0 -0.0
0002a0 00 00 00 80 00 00 00 80 00 00 00 80 2a 5e 46 bd
       -0.0 -0.0 -0.0 -0.048429646
0002b0 8e 26 67 bd 00 00 00 80 22 1d 53 bd 00 00 00 00
       -0.056433253 -0.0 -0.051541455 0.0
0002c0 00 00 00 00 00 00 00 80 00 00 00 80 00 00 00 80
       0.0 -0.0 -0.0 -0.0
0002d0 00 00 00 80 00 00 00 00 00 00 00 00 00 00 00 00
       -0.0 0.0 0.0 0.0
0002e0 00 00 00 00 00 00 00 00 00 00 00 00 00 00 00 00
       0.0 0.0 0.0 0.0
0002f0 00 00 00 00 b3 52 9c 3d 34 18 b7 3d fb 9b ab 3d
       0.0 0.07632961 0.08940163 0.0837936
000300 29 f1 9b 3d f9 4d 7e 3d 28 08 51 3d 00 00 00 00
       0.07614357 0.06208608 0.05103317 0.0
000310 9c 99 a1 bd d6 fb bf bd e5 e3 77 bd c5 7f c9 bd
       -0.07890627 -0.09374206 -0.06052007 -0.09838823
000320 2a f5 bb bd 30 0b 99 bd 2b 66 04 be cf ef a6 bd
       -0.09177621 -0.07472837 -0.12929599 -0.081512086
000330 81 fc 7f bd 47 ec bc bd 71 15 a1 bd 1c d1 a7 bd
       -0.062496666 -0.09224754 -0.07865418 -0.08194181
000340 db 88 75 bd 41 67 63 bd 00 00 00 80 59 67 66 bd
       -0.05994497 -0.055518392 -0.0 -0.056250904
000350 20 74 40 bd 45 5e a3 bd 00 00 00 80 00 00 00 80
       -0.046985745 -0.07976965 -0.0 -0.0
000360 fc 22 52 bd 00 00 00 80 41 9f 6d bd db ad 51 bd
       -0.051302895 -0.0 -0.058013204 -0.051191192
000370 00 00 00 80 00 00 00 80 00 00 00 80 00 00 00 00
       -0.0 -0.0 -0.0 0.0
000380 00 00 00 00 00 00 00 00 7e c2 55 3d 00 00 00 00
       0.0 0.0 0.052187435 0.0
000390 26 eb 7a 3d 00 00 00 00 00 00 00 00 49 60 a9 3d
       0.06125941 0.0 0.0 0.08270318
0003a0 71 ac 93 3d 88 9f 8c 3d a3 e6 93 3d d4 04 a0 3d
       0.07210625 0.06866366 0.07221725 0.07813421
0003b0 00 00 00 00 87 14 84 3d 07 9a e2 3d 57 1c ff 3d
       0.0 0.06449228 0.11064535 0.12456577
0003c0 45 49 43 3e d1 72 3e 3e 06 a8 d9 3d 6c 4f 0a 3e
       0.19070919 0.18598486 0.10627751 0.1350686
0003d0 f3 d9 b1 3d 78 93 2c be 23 f9 d4 bd 64 9f ba bd
       0.08684149 -0.1685313 -0.103990816 -0.091124326
0003e0 ac 50 08 be 2e aa c2 bd 28 d3 0b be 93 8a e1 bd
       -0.13312024 -0.095051154 -0.13654768 -0.11012759
0003f0 0e d6 f4 bd 91 24 a5 bd 24 ed a3 bd b1 96 b7 bd
       -0.1195489 -0.08063615 -0.08004215 -0.08964289

bn1.weight f4 [64]
000000 03 23 08 3f f9 d4 77 3f 87 d2 31 3f d6 00 95 3f
       0.53178424 0.96809345 0.69461864 1.164088
000010 3f bd 0c 3f 8a e3 24 3f 4e 4e 3d 3f 3a d7 67 3f
       0.54976267 0.644097 0.7394761 0.90562785
000020 20 8f 0b 3f 97 0a 41 3f 3a 94 bd 3f f9 b6 34 3f
       0.54515266 0.75406784 1.481086 0.70591694
000030 9d a6 f0 3e 7a 09 21 3f 2d a9 63 3f c5 48 39 3f
       0.47002116 0.62905085 0.88930017 0.7237666
000040 b1 11 31 3f 51 06 1b 3f 78 c2 ff 3e d0 6b 1d 3f
       0.6916762 0.60556513 0.49953055 0.61492634
000050 8e c8 28 3f a8 22 43 3f e5 c5 6d 3f 56 4a 3c 3f
       0.6593102 0.76224756 0.9288009 0.7355093
000060 6d d3 56 3f 45 fa 3a 3f e9 2c 2d 3f 2c 3e 07 3f
       0.8391636 0.7303813 0.6764665 0.5282924
000070 d1 89 40 3f ba c9 5d 3f bf 4c 3c 3f 36 7f 1a 3f
       0.7521029 0.86635935 0.73554605 0.6035036
000080 4b 90 29 3f 32 c2 4c 3f ba 52 1a 3f f5 43 21 3f
       0.662358 0.7998382 0.6028248 0.6299432
000090 93 0c 4e 3f 4d dc 12 3f b9 61 80 3f a2 fc 5c 3f
       0.80487937 0.573674 1.0029823 0.8632299
0000a0 d1 8d 1b 3f 37 a0 19 3f 04 f9 8f 3f 53 62 16 3f
       0.6076327 0.60010093 1.1247869 0.5874378
0000b0 2e 84 1b 3f 2c 6f 09 3f 6e f9 19 3f 8f 5d 18 3f
       0.60748565 0.5368526 0.60146224 0.5951776
0000c0 67 05 33 3f db c0 2b 3f f1 99 15 3f 3b 77 8c 3f
       0.6993012 0.6709115 0.5843802 1.0973886
0000d0 af 90 43 3f 82 47 58 3f 6d 13 07 3f 80 28 29 3f
       0.76392645 0.8448411 0.52764016 0.66077423
0000e0 fd 2e fe 3e 7c 0b 5d 3f 30 3c 09 3f 10 66 a4 3f
       0.49645224 0.8634565 0.53607464 1.2843647
0000f0 57 ef 19 3f 21 2d 47 3f b3 dc 2c 3f 2d 56 69 3f
       0.6013083 0.77803236 0.6752426 0.9114712

bn1.bias f4 [64]
000000 fc 99 30 be ab cb 43 be 39 30 71 be fb 57 3f be
       -0.1724624 -0.19120662 -0.23553552 -0.18685906
000010 ab 4b 00 3e 2f da 7c be 16 97 62 be 78 44 f2 bb
       0.12528865 -0.24692605 -0.22127947 -0.007393416
000020 3b 60 4d 3e b6 f5 ac be c5 f9 8d be 6d 5d 01 3e
       0.2005624 -0.33781213 -0.27729622 0.12633295
000030 38 e2 9f 3e ad f6 0c be 4b d8 f0 bd be 69 df 3b
       0.3122728 -0.13765974 -0.117600046 0.0068180254
000040 29 9f 79 bd 96 ea 80 3d 9f 17 57 be 5d fc 59 bd
       -0.060942803 0.06294744 -0.21005104 -0.053219188
000050 7a 5f 9c bb 00 92 63 be af a3 0d be 44 d9 b8 be
       -0.004772124 -0.22223663 -0.13831972 -0.3610326
000060 ec 9b 68 bd 9a 6f 23 bd b2 ef 20 be cd 7f 61 3e
       -0.056789324 -0.039901353 -0.15716437 0.22021408
000070 52 0f dd 3d a0 62 9c be 0c f6 8f be f5 2a 29 3e
       0.10793938 -0.30543995 -0.28117406 0.16520293
000080 35 9a 4a 3e 65 ac 9e 3e 33 0f 11 be 49 d9 88 be
       0.19785388 0.30990902 -0.14165954 -0.26728275
000090 cb 48 08 bd b9 82 fb bd 11 f7 44 be 2c e8 06 bd
       -0.033272546 -0.12280793 -0.19234873 -0.03293626
0000a0 2d 8c ee 3d d7 8c a5 3d 59 8f 5a be e5 0b fc bd
       0.1164783 0.08083504 -0.21343745 -0.12306956
0000b0 35 1a 69 3e 16 13 c5 bd 13 ca 11 3e 93 cf 34 bd
       0.22763903 -0.09622781 0.14237241 -0.04414327
0000c0 b6 4d 24 be 73 fc 31 be e9 1f 29 be b2 f0 91 be
       -0.1604527 -0.17381458 -0.16516079 -0.28503948
0000d0 6d 36 77 bc 1d d0 88 3e 41 e3 07 3e c7 20 33 3d
       -0.01508866 0.26721278 0.13270284 0.04373243
0000e0 fa 72 02 be 9f 14 99 3d 77 3a 3a 3e 4d 51 6a be
       -0.12739173 0.07474636 0.18186365 -0.22882576
0000f0 94 2b 44 3d f8 cf 1c bd 24 7d 73 3d 3e 04 73 be
       0.04789312 -0.038284272 0.059445515 -0.23732087

bn1.running_mean f4 [64]
000000 a9 d7 6c 3d d2 6a 9c bc ad 0c 21 be 7c c4 77 3c
       0.057822857 -0.019093905 -0.15727492 0.015122529
000010 7f 39 50 bb 05 d0 10 3d 1d 2f 3b 3e de 9f c5 bb
       -0.0031772552 0.035354633 0.18279691 -0.0060310205
000020 37 cb 1f 3e 1b 4c 2f bd a4 7f b9 3b ae 81 14 3c
       0.15604864 -0.04279719 0.005660968 0.009064121
000030 18 8b 37 3c 2a 8f 53 3e 08 d1 a2 bc 1c 6c c3 3c
       0.011202596 0.20660082 -0.019875064 0.023855262
000040 fe df 27 3d 3d cf af bc 37 df af bd 5a 76 c1 bd
       0.0409851 -0.021461124 -0.08587497 -0.09446402
000050 01 6f 05 bd 95 5e f8 bc 0d 5f 89 bc 4d 2d 12 be
       -0.032576565 -0.030318538 -0.016768957 -0.14275093
000060 6d 21 c8 bb c9 54 0c bc fe 6b dd bd 95 ba 79 3c
       -0.0061075003 -0.008565136 -0.108116135 0.0152422385
000070 4d 3d 87 3c d9 b0 77 bc 3d b3 2e be 0e 7e 82 bd
       0.016508723 -0.015117847 -0.17060561 -0.06371699
000080 2d 9e 3d be 6f 73 95 bb 39 81 18 3c c2 17 05 bd
       -0.1851737 -0.00456088 0.009308153 -0.03249336
000090 34 69 66 bb fe 74 eb bc 6d 89 6b bc d8 8c 01 3d
       -0.003515792 -0.02874231 -0.014376027 0.03162846
0000a0 66 95 17 be ab 6f 64 3b a9 b6 62 3d a6 b7 03 3e
       -0.14803085 0.0034856598 0.05534998 0.12863025
0000b0 e5 fb 28 3e 6f a1 8d 3c 7a 9d 3c 3c 5d df 13 be
       0.1650234 0.017288892 0.011512155 -0.14440675
0000c0 5d 1e 8f bc 75 f8 9c bc d3 78 32 39 e3 0a 16 3c
       -0.017470533 -0.019161442 0.00017020413 0.009157869
0000d0 b7 c0 9f bd c8 3e 01 3e 40 6b 30 3e be 48 36 3d
       -0.07800429 0.12621605 0.17228413 0.044502966
0000e0 85 41 4b 3d d8 37 8d bc 41 81 db bd c2 f3 50 bc
       0.04962303 -0.017238542 -0.107180126 -0.012753429
0000f0 b1 a5 48 bd be 55 11 3c bd a8 ac bc 8f 20 87 bb
       -0.04898614 0.00887054 -0.021076554 -0.0041237543

bn1.running_var f4 [64]
000000 48 ad 64 40 2c 5b 70 40 f5 67 7e 40 ff 22 c1 40
       3.5730762 3.7555647 3.975095 6.035522
000010 85 e7 93 40 1d 00 cf 3f 9e 2b da 40 ac 65 04 40
       4.6220117 1.617191 6.8178244 2.0687056
000020 81 4a f8 40 94 d2 2b 40 7e e3 57 41 14 c4 69 40
       7.7590947 2.6847277 13.49304 3.6525927
000030 9d 46 60 40 f4 93 9c 40 9d f7 26 40 98 4b 68 40
       3.50431 4.8930607 2.608863 3.6296139
000040 e2 6e c4 40 be aa 80 40 ed ee 79 40 20 08 7c 40
       6.1385355 4.0208426 3.9052079 3.937996
000050 8e 85 17 40 2d 08 e0 3f bc 8d 4b 40 b3 67 3d 40
       2.3675265 1.7502495 3.1805258 2.9594543
000060 9c 22 35 40 fe 5c 66 40 90 fb 38 40 bd c4 0f 40
       2.8302374 3.5994258 2.8903542 2.246383
000070 ac 2a 4b 40 11 13 9e 40 fc 01 9c 40 3b ad 86 40
       3.1744795 4.9398274 4.875242 4.2086463
000080 b1 37 92 40 54 59 5e 40 63 d4 b2 3f 5e 9b 50 3f
       4.5692983 3.4742022 1.3971065 0.8148707
000090 50 98 b2 3f 98 eb 25 40 c1 71 96 40 25 ed 24 40
       1.3952732 2.5925045 4.701386 2.5769742
0000a0 d9 28 8d 40 06 6a 1c 40 53 31 a0 40 8f a4 a4 40
       4.4112363 2.4439712 5.006021 5.1450877
0000b0 83 7c cd 40 27 b7 53 40 f2 40 2e 40 1c 24 6f 40
       6.421449 3.3080537 2.722714 3.736579
0000c0 b9 45 f1 3e 56 ad c7 3f 47 02 17 40 e1 73 9e 40
       0.47123507 1.5599773 2.359514 4.9516454
0000d0 dd df 3e 40 ec 36 fc 40 3c 2d 9c 40 3c 67 e1 3f
       2.9824135 7.8817043 4.880522 1.760963
0000e0 cd b5 08 40 db 15 84 40 2b a7 78 40 ac 04 fc 40
       2.1360962 4.127668 3.8852031 7.8755703
0000f0 d1 91 55 40 00 bb 7f 40 35 b6 4f 40 d3 96 9a 3f
       3.337025 3.9957886 3.245496 1.2077278

layer1.0.conv1.weight f4 [64, 64, 3, 3]
000000 60 b6 38 3d 49 97 2a bd 00 00 00 00 00 00 00 80
       0.0450958 -0.041648183 0.0 -0.0
000010 57 40 57 bd 00 00 00 80 43 cd c7 bd ec 23 73 bd
       -0.052551594 -0.0 -0.097559474 -0.05936043
000020 72 4a 25 3d 97 4c 58 be 47 7f 0c be 09 0f e7 bd
       0.0403542 -0.21122967 -0.13720427 -0.112821646
000030 26 c1 28 be 40 34 05 be 55 d3 a6 bd 93 09 34 be
       -0.1647993 -0.13008213 -0.08145777 -0.17581777
000040 32 36 40 be f8 a4 4c be 97 b4 59 bd 14 79 85 bd
       -0.18770674 -0.19984806 -0.05315074 -0.065172344
000050 00 00 00 00 f3 80 81 bd cd bb 36 3d 00 00 00 80
       0.0 -0.06323423 0.044612695 -0.0
000060 2a 47 54 bd 9f 99 6a 3d 00 00 00 80 33 c2 ab bd
       -0.05182568 0.05727541 -0.0 -0.0838665
000070 58 7d b1 bd 00 00 00 80 00 00 00 80 00 00 00 00
       -0.086664855 -0.0 -0.0 0.0
000080 00 00 00 80 00 00 00 00 e3 db 12 3e bb 8f 9d 3d
       -0.0 0.0 0.14341693 0.0769343
000090 a6 02 ad bd 00 00 00 00 00 00 00 80 00 00 00 80
       -0.08447771 0.0 -0.0 -0.0
0000a0 00 00 00 00 00 00 00 80 6c 46 b4 3d 00 00 00 00
       0.0 -0.0 0.088024944 0.0
0000b0 f5 93 06 3e 00 00 00 00 00 00 00 80 9b 56 a4 bd
       0.13142379 0.0 -0.0 -0.08024331
0000c0 00 00 00 80 3c 96 7a bd 00 00 00 80 29 f6 cc 3d
       -0.0 -0.06117843 -0.0 0.10007889
0000d0 00 00 00 00 e8 8e 19 3d 00 00 00 00 f2 24 a9 bd
       0.0 0.0374898 0.0 -0.08259
0000e0 00 00 00 80 00 00 00 00 00 00 00 80 00 00 00 00
       -0.0 0.0 -0.0 0.0
0000f0 23 82 93 3d d3 70 9c 3d a9 07 38 3d a0 b0 c8 3d
       0.07202556 0.07638707 0.04492918 0.097993135
000100 ab 5b 8c 3d 00 00 00 00 7d 06 02 3e e4 66 a8 3d
       0.06853422 0.0 0.12697788 0.0822275
000110 1e fd 05 3e 55 6b 43 3e 59 05 d6 3d 84 26 7a 3d
       0.13084838 0.19083913 0.10450239 0.061071888
000120 9f 92 8f bd 00 00 00 00 00 00 00 80 83 27 57 3d
       -0.07010388 0.0 -0.0 0.052527916
000130 db 2b 33 bd 73 3e 53 3d 4f 70 37 3d 00 00 00 00
       -0.043742996 0.051573228 0.04478484 0.0
000140 ed 8d 8b 3d 00 00 00 80 00 00 00 80 00 00 00 00
       0.068141796 -0.0 -0.0 0.0
000150 00 00 00 80 00 00 00 80 f7 8c c8 bd 01 a2 52 bd
       -0.0 -0.0 -0.09792512 -0.05142403
000160 aa 42 96 bd 28 cc 17 bd aa 7d 13 3e 01 8a 14 3e
       -0.07336934 -0.037059933 0.14403406 0.1450577
000170 d4 0d 3b 3e 00 00 00 80 cc 80 66 3d 00 00 00 00
       0.18266994 -0.0 0.056275174 0.0
000180 b3 08 b5 3d 20 4d ad 3d 33 b5 7f 3d 28 d9 e1 3d
       0.0883955 0.08461976 0.062428664 0.110277474
000190 00 00 00 00 66 8d 4d 3d 38 86 b1 3d cd fa 29 bd
       0.0 0.050183676 0.08668178 -0.041498948
0001a0 00 00 00 00 35 6d 0b 3e 9d 99 23 3d da c9 4d 3d
       0.0 0.13615878 0.03994142 0.05024133
0001b0 3d 45 05 be 00 00 00 80 ed ae 9c bd 00 00 00 80
       -0.13014694 -0.0 -0.07650552 -0.0
0001c0 00 00 00 00 00 00 00 80 c8 74 2a 3d 06 65 dc 3d
       0.0 -0.0 0.041615278 0.10761456
0001d0 00 00 00 00 27 e7 41 3d 52 a6 89 bd 00 00 00 80
       0.0 0.047339585 -0.06721176 -0.0
0001e0 e1 8a 6a bd 00 00 00 80 00 00 00 00 88 31 31 bd
       -0.05726135 -0.0 0.0 -0.043260127
0001f0 c8 90 64 bd 2f 52 26 bd 8c 38 21 bd f4 98 d2 bd
       -0.055802137 -0.04060572 -0.039360568 -0.1028308
000200 4e b4 d0 bd 56 95 a8 bd 9a 90 9a bd 4a 30 4c bd
       -0.101906404 -0.082316086 -0.07547112 -0.04985074
000210 00 00 00 00 c1 79 4b 3d 00 00 00 00 0d 6b 88 bd
       0.0 0.04967666 0.0 -0.06661043
000220 00 00 00 00 1a a2 83 bd 00 00 00 80 c3 5e e9 bd
       0.0 -0.06427403 -0.0 -0.113950275
000230 00 00 00 80 c8 95 c7 bd 86 96 73 bd 3c 82 8a bd
       -0.0 -0.097453654 -0.059469722 -0.067631215
000240 00 00 00 00 9e 15 24 3d f0 c3 8e 3d 2c f4 7e bd
       0.0 0.04005968 0.06970966 -0.06224458
000250 32 fe 9a bd a6 0e 83 bd c1 1e 6b bd 00 00 00 00
       -0.07568015 -0.06399278 -0.057402376 0.0
000260 00 00 00 80 00 00 00 00 f3 8d 6c bd 8c f4 a2 3d
       -0.0 0.0 -0.05775256 0.079568
000270 00 00 00 80 28 c0 85 bd 00 00 00 80 0a a6 ac bd
       -0.0 -0.065307915 -0.0 -0.08430107
000280 b0 a0 fb bd 00 00 00 80 a9 b5 85 3d f6 67 80 3d
       -0.12286508 -0.0 0.065287896 0.06269829
000290 52 78 7e 3d da 6f 38 3d a1 63 30 3d 00 00 00 00
       0.062126465 0.045028545 0.043063764 0.0
0002a0 bc 62 01 3e 00 00 00 00 00 00 00 00 b8 df 5d 3d
       0.1263532 0.0 0.0 0.054168433
0002b0 00 00 00 00 00 00 00 00 00 00 00 00 00 00 00 80
       0.0 0.0 0.0 -0.0
0002c0 14 6d 48 3d 00 00 00 00 1b 3f cf bd 00 00 00 00
       0.04893215 0.0 -0.10119458 0.0
0002d0 00 00 00 80 c4 58 ae bd 93 ee 8c bd 20 a0 36 bd
       -0.0 -0.085130244 -0.06881442 -0.0445863
0002e0 93 1e 87 bd 39 ff 36 bd 00 00 00 80 e3 cc 81 bd
       -0.065976284 -0.044676993 -0.0 -0.06337907
0002f0 00 00 00 80 00 00 00 00 ec fc 7d bd c8 26 51 bd
       -0.0 0.0 -0.062008783 -0.051062375
000300 1e 53 ab bd 00 00 00 00 23 a2 34 3d 99 64 8c 3d
       -0.08365463 0.0 0.044099938 0.06855125
000310 2a cf d2 3d 1b f6 b5 3d 8a 6d 41 be 38 25 a9 bd
       0.1029342 0.088848315 -0.18889442 -0.08259052
000320 73 c6 69 be ac 08 ed bd 6c 93 03 be 23 59 55 be
       -0.22829609 -0.1157392 -0.12849206 -0.20834784
000330 50 fb 42 bd 2d 7b 0d be 07 db 38 be 00 00 00 80
       -0.04760295 -0.13816519 -0.18052302 -0.0
000340 00 00 00 80 00 00 00 00 00 00 00 80 00 00 00 80
       -0.0 0.0 -0.0 -0.0
000350 00 00 00 80 00 00 00 80 b0 b1 b6 bd b1 82 36 bd
       -0.0 -0.0 -0.0892061 -0.04455823
000360 00 00 00 80 27 ef 1e be b8 8a 0b be 35 a7 b7 bd
       -0.0 -0.15520917 -0.13627136 -0.08967439
000370 ad e1 fd bd 00 00 00 80 00 00 00 80 1d 0a da bd
       -0.1239656 -0.0 -0.0 -0.1064646
000380 a8 1b a2 bd 00 00 00 80 00 00 00 00 00 00 00 80
       -0.07915431 -0.0 0.0 -0.0
000390 00 00 00 00 00 00 00 00 00 00 00 80 00 00 00 80
       0.0 0.0 -0.0 -0.0
0003a0 00 00 00 80 00 00 00 00 00 00 00 00 ab 5b 09 3e
       -0.0 0.0 0.0 0.13413875
0003b0 05 55 1b 3e 00 00 00 80 00 00 00 80 98 37 41 bd
       0.15169151 -0.0 -0.0 -0.04717216
0003c0 7f f1 b1 bd 2d 31 27 bd 00 00 00 00 df 77 66 bd
       -0.0868864 -0.040818382 0.0 -0.05626666
0003d0 d8 1a ba bd 00 00 00 80 00 00 00 80 00 00 00 80
       -0.09087151 -0.0 -0.0 -0.0
0003e0 cc eb 42 bd 00 00 00 00 67 48 b6 3d 00 00 00 80
       -0.047588155 0.0 0.089005284 -0.0
0003f0 00 00 00 00 68 84 92 3d 3e 61 8c 3d 6b 11 9a 3d
       0.0 0.07154161 0.06854485 0.075228535

layer1.0.bn1.weight f4 [64]
000000 82 0c 7c 3f c8 78 36 3f 63 4c 07 3f 48 75 3f 3f
       0.98456585 0.7127805 0.5285093 0.7478833
000010 94 cb 5b 3f 11 d1 2c 3f 10 1d 58 3f 1a d6 27 3f
       0.8585751 0.6750651 0.84419346 0.6556107
000020 41 9c 21 3f 35 7b 44 3f ac 9c 1e 3f 4f c4 28 3f
       0.6312905 0.767505 0.6195781 0.65924543
000030 04 f2 1d 3f d0 57 14 3f 4e 87 f2 3e af b8 05 3f
       0.6169741 0.5794649 0.47368854 0.5223493
000040 16 db 0e 3f 5e 51 32 3f 35 3d 45 3f 2f f1 f2 3e
       0.5580305 0.69655406 0.7704652 0.47449633
000050 68 ca 61 3f ca f5 2b 3f e3 43 1b 3f 18 04 13 3f
       0.8819947 0.6717192 0.6065046 0.5742812
000060 d3 d4 1a 3f 0b c3 1a 3f 2f 9c 26 3f cd 1f 45 3f
       0.60480994 0.6045386 0.6508207 0.7700165
000070 c8 a4 14 3f 87 d2 04 3f 00 88 3a 3f 5a 90 30 3f
       0.58063936 0.5188374 0.7286377 0.68970263
000080 f9 9c 2e 3f cd 7a 14 3f d9 ef 0b 3f af 83 2f 3f
       0.6820827 0.5799988 0.54662853 0.6856031
000090 98 aa 50 3f 6c aa 8b 3f 23 64 0b 3f 4d 1e 1f 3f
       0.81510305 1.0911384 0.5444967 0.6215561
0000a0 4f 46 2f 3f fb 17 48 3f ca 6d 09 3f b3 f5 65 3f
       0.6846666 0.7816159 0.5368315 0.8982803
0000b0 c4 71 5a 3f 0a 65 2e 3f 67 0d 59 3f 48 a8 05 3f
       0.8532984 0.68122923 0.84786075 0.522099
0000c0 ca fa 1a 3f c6 3f 08 3f 96 b9 24 3f a0 f7 6b 3f
       0.60538924 0.5322231 0.6434568 0.9217472
0000d0 62 cf 0b 3f 71 f7 0e 3f 4f b6 2e 3f 41 09 1e 3f
       0.54613316 0.55846316 0.6824693 0.6173287
0000e0 8d cd 31 3f e9 e0 1b 3f 08 b9 34 3f 1f 58 05 3f
       0.6945427 0.6089006 0.70594835 0.5208759
0000f0 64 24 47 3f 69 6c 04 3f 0e 8e 1f 3f bc 09 45 3f
       0.777899 0.5172792 0.62326133 0.7696798

layer1.0.bn1.bias f4 [64]
000000 9b b9 1a bf 44 00 e1 be f8 1b c8 bd e3 c1 0b bf
       -0.6043946 -0.43945515 -0.097709596 -0.5459272
000010 7f 9e 04 bf 7c 3a b5 be 13 a1 14 bf d3 6d 0b be
       -0.51804346 -0.35396183 -0.5805828 -0.13616113
000020 19 8e e3 be 6d 74 08 bf a1 0b 88 be 47 8f 91 be
       -0.4444435 -0.5330265 -0.26571372 -0.28429624
000030 9c 4e 67 be 84 1a 5b be c2 b1 f4 bc e9 1d 80 be
       -0.22588581 -0.21396834 -0.029869918 -0.2502282
000040 02 8e 57 be 0e 37 d5 be ce d6 10 bf 53 14 d8 be
       -0.21050265 -0.41643566 -0.56577766 -0.42203006
000050 a3 4d 0f bf ac c3 32 be 25 67 ad be 73 5c 7a be
       -0.5597784 -0.17457455 -0.33867756 -0.24449329
000060 70 4a cc bd f3 e4 9c be 73 0e e2 be 08 4e e0 be
       -0.09975135 -0.30643424 -0.4415165 -0.43809533
000070 e5 35 af be 4e e3 0a be d2 bf 90 be 9b 84 b6 be
       -0.34220806 -0.13563272 -0.28271347 -0.35648045
000080 1b 85 08 bf 52 4c 07 bf f8 4c 83 bd a2 e9 93 be
       -0.533281 -0.5285083 -0.06411165 -0.28889185
000090 48 20 0e bf 3b a6 5c bf 45 3e 60 be 50 d1 54 be
       -0.5551801 -0.8619115 -0.21898754 -0.20782971
0000a0 d9 a4 af be b3 bb cd be 4a 4a da bd 2a d6 0f bf
       -0.34305456 -0.40182266 -0.10658701 -0.56186163
0000b0 ff 0f a2 be 75 e1 6d be 91 11 da be f9 b0 63 be
       -0.3165283 -0.23230536 -0.42591527 -0.22235478
0000c0 cb 98 be be 22 ed 17 be d8 d1 a5 be e6 20 94 be
       -0.37225947 -0.14836553 -0.3238666 -0.2893135
0000d0 32 03 e1 bd d4 7a ac bd 3c 1a a0 be d3 26 bb be
       -0.109869376 -0.08421865 -0.31270015 -0.36553058
0000e0 58 26 fd be 23 b0 6f be ea 86 c0 be b3 a4 8b be
       -0.49443316 -0.23407035 -0.3760293 -0.27274093
0000f0 82 3c d4 be b7 0e ba 3d f7 dd 34 be 8d 3f 46 be
       -0.41452414 0.09084838 -0.17662798 -0.1936018

layer1.0.bn1.running_mean f4 [64]
000000 7c 29 36 c0 75 fe 4a c0 7d e2 41 3f 8e 38 a9 bf
       -2.846282 -3.1717808 0.7573622 -1.3220384
000010 98 2f 9a c0 7b ba 59 c0 f2 37 9d bf fd 7c 49 c0
       -4.81831 -3.4020069 -1.2282698 -3.1482537
000020 a0 24 98 bf fe 08 c0 bf 65 f4 91 bf 53 a2 56 c0
       -1.1886177 -1.5002744 -1.1402708 -3.3536575
000030 c5 50 ed be 83 c9 dd bf 75 47 eb bf 29 81 c3 be
       -0.46350685 -1.7327121 -1.8381182 -0.3818448
000040 f4 97 24 bf 15 5f 8a be b3 89 1f c0 93 d5 0c 40
       -0.6429436 -0.27025667 -2.4927795 2.2005355
000050 0b e1 dc bf 49 7f a8 bf 1d 86 5d 3e ba 61 bd bf
       -1.7256178 -1.3163844 0.21633191 -1.4795449
000060 c0 81 0a c0 1b 01 1c c0 ac aa 24 c0 3a c5 1d c0
       -2.1641693 -2.4375675 -2.572917 -2.4651628
000070 fd ef 13 bf 3c 5f 21 40 75 fc 0b c0 ff 64 53 bf
       -0.5778807 2.5214376 -2.1872838 -0.8257598
000080 cf 81 db bf dd 85 8d 40 15 15 4e 3f 21 dc 2c c0
       -1.714899 4.4225907 0.8050092 -2.7009356
000090 2e 98 2b c0 51 7d 76 bf f3 e7 d1 bf ed ad dc 3e
       -2.6811633 -0.9628497 -1.639891 0.43101445
0000a0 90 57 b5 bf fa 44 04 c0 f0 68 97 bf 3e 20 67 c0
       -1.4167347 -2.06671 -1.1828899 -3.611343
0000b0 8e 1b 78 bf 1b 6c 9e 3e 82 ad 73 bf fb 3b 09 40
       -0.96917045 0.30941853 -0.95186627 2.144286
0000c0 8a 22 72 c0 b1 8d a5 bf 37 14 27 c0 0e d7 fc bf
       -3.783358 -1.2933866 -2.6106088 -1.975313
0000d0 8c c9 a4 bf 72 4b b0 bf 42 0d 19 c0 2b a2 4e 3e
       -1.2874007 -1.3773024 -2.3914342 0.2017905
0000e0 86 7d 39 bf 46 07 34 c0 27 ec 57 c0 43 77 cb bf
       -0.7245716 -2.812944 -3.3737886 -1.5895771
0000f0 32 1a 85 c0 7a 1b a8 c0 b2 be 52 bf 77 f6 04 c0
       -4.1594477 -5.253354 -0.8232223 -2.077543

layer1.0.bn1.running_var f4 [64]
000000 78 44 0a 41 ba fe d0 40 f7 35 70 40 f0 e3 a5 40
       8.641716 6.5310946 3.7532938 5.1840744
000010 13 f6 7b 41 ba c1 53 40 1a 3f 7b 40 90 87 b0 40
       15.747577 3.3086991 3.9257264 5.516548
000020 54 08 82 40 04 bb a1 40 1a c2 6d 40 f7 e6 cc 40
       4.0635166 5.054079 3.714972 6.403194
000030 69 26 8c 40 7e e6 a9 40 9f 71 83 40 44 80 42 40
       4.3796887 5.3093863 4.10762 3.0390787
000040 0a c3 75 40 7c e0 a4 40 26 61 5b 40 c8 ea 3a 40
       3.8400292 5.152403 3.4278045 2.92058
000050 89 a6 99 40 45 81 51 40 5b 6d 4e 40 5c e3 36 40
       4.801579 3.273515 3.2254245 2.857627
000060 a5 c5 72 40 d4 a1 92 40 dd a4 2a 40 c7 a1 83 40
       3.7933133 4.5822544 2.6663125 4.113498
000070 15 fc 76 40 49 aa 88 40 77 7f 03 41 a9 93 72 40
       3.8591359 4.270787 8.218619 3.7902625
000080 2c 8c 2a 40 95 44 c0 40 92 b3 c2 40 ee 6f 9a 40
       2.6648054 6.008372 6.08442 4.8261633
000090 68 13 08 41 07 78 1c 41 6d e9 8c 40 dd 0a 75 40
       8.504738 9.779304 4.4034944 3.828788
0000a0 62 ed 72 40 68 8a 7b 40 38 a0 24 40 f7 43 a9 40
       3.7957387 3.9303226 2.572279 5.2895465
0000b0 03 30 98 40 59 3d c3 40 81 68 96 40 3d 4f 90 40
       4.755861 6.1012387 4.700257 4.5096726
0000c0 a7 40 99 40 2c b5 4e 40 7d 54 60 40 fb 5e da 40
       4.789142 3.2298079 3.5051568 6.8240943
0000d0 e6 da 4f 40 3f 06 c9 40 c2 32 81 40 c3 13 39 40
       3.2477355 6.2820125 4.037446 2.8918312
0000e0 d1 c1 37 40 b7 80 c4 40 22 5b b4 40 3f f0 80 40
       2.8712046 6.1407123 5.6361246 4.029327
0000f0 22 3e d5 40 a0 d9 3c 41 1f b4 66 40 94 ed e1 40
       6.6638346 11.803131 3.6047437 7.060251

layer1.0.conv2.weight f4 [64, 64, 3, 3]
000000 ba 30 72 3d 00 00 00 00 00 00 00 00 9f 67 48 3d
       0.0591285 0.0 0.0 0.048926946
000010 cf 0e 7c 3d 00 00 00 00 e9 f6 ce 3d 38 72 1a bd
       0.06153756 0.0 0.10105688 -0.037706584
000020 07 62 b5 3d 00 00 00 80 00 00 00 00 f3 d2 64 3d
       0.08856588 -0.0 0.0 0.05586524
000030 00 00 00 00 ab e9 2b bd 00 00 00 80 00 00 00 00
       0.0 -0.04197089 -0.0 0.0
000040 3e c4 79 3d 62 71 7d 3d fc f3 8d bd a1 68 6a bd
       0.060978167 0.06187571 -0.06931302 -0.05722869
000050 59 ec ba bd 00 00 00 80 00 00 00 80 00 00 00 80
       -0.09127111 -0.0 -0.0 -0.0
000060 40 17 a1 bd 00 00 00 80 1d fc 49 bd 00 00 00 00
       -0.07865763 -0.0 -0.0493127 0.0
000070 aa 58 5b bd 00 00 00 80 2b b8 83 bd 17 f5 29 bd
       -0.053551354 -0.0 -0.064316116 -0.0414935
000080 de 73 3c bd 19 5b f4 bd 00 00 00 00 00 00 00 80
       -0.046008937 -0.11931438 0.0 -0.0
000090 00 00 00 80 61 b8 45 bd 31 3e 62 bd b8 a9 b9 bd
       -0.0 -0.04827154 -0.05523509 -0.090655744
0000a0 da ec 95 bd 00 00 00 00 00 00 00 00 00 00 00 00
       -0.073205665 0.0 0.0 0.0
0000b0 f4 d2 68 bd 00 00 00 00 00 00 00 80 e3 52 5e 3d
       -0.056841806 0.0 -0.0 0.054278266
0000c0 6c e6 83 3d 00 00 00 80 39 88 24 bd 00 00 00 00
       0.06440434 -0.0 -0.040168975 0.0
0000d0 00 00 00 80 34 37 86 3d 00 00 00 00 00 00 00 80
       -0.0 0.06553498 0.0 -0.0
0000e0 00 00 00 00 4e 53 b2 bd 53 ce 57 bd 00 00 00 00
       0.0 -0.08707295 -0.052687 0.0
0000f0 10 e5 6f 3d 00 00 00 00 00 00 00 80 9b 98 3c bd
       0.05856806 0.0 -0.0 -0.046043973
000100 ec 98 31 3d 00 00 00 00 00 00 00 00 67 14 ad bd
       0.04335873 0.0 0.0 -0.08451157
000110 00 00 00 80 00 00 00 80 e0 ee 40 bd 00 00 00 80
       -0.0 -0.0 -0.04710281 -0.0
000120 ef af 8a bd 99 b6 9b bd 00 00 00 80 31 ca e1 bd
       -0.06771838 -0.07603187 -0.0 -0.11024893
000130 00 00 00 80 6c f4 68 3d 00 00 00 00 e0 6f db bd
       -0.0 0.056873724 0.0 -0.10714698
000140 3c 8e af bd 74 04 50 bd 00 00 00 00 00 00 00 00
       -0.08572051 -0.050785497 0.0 0.0
000150 6f 16 56 3d 18 e4 22 bd 00 00 00 80 00 00 00 00
       0.052267488 -0.03976831 -0.0 0.0
000160 dc d6 23 bd 35 38 85 bd 8c 09 42 bd 00 00 00 00
       -0.039999828 -0.06504861 -0.047372386 0.0
000170 cf 14 a3 bd 29 02 40 bd 00 00 00 80 00 00 00 80
       -0.07962953 -0.04687706 -0.0 -0.0
000180 00 00 00 80 7e e4 89 bd 00 00 00 00 00 00 00 80
       -0.0 -0.067330346 0.0 -0.0
000190 00 00 00 80 ac 25 87 3d 96 73 68 bd 00 00 00 00
       -0.0 0.06598982 -0.056750856 0.0
0001a0 bc 77 21 3d 00 00 00 00 00 00 00 00 00 00 00 00
       0.03942083 0.0 0.0 0.0
0001b0 38 0e 33 bd f3 11 e6 bd 61 d4 14 bd 9f 53 7a bd
       -0.043714732 -0.11233892 -0.036335353 -0.061114904
0001c0 00 00 00 80 dc be 4f bd 00 00 00 00 00 00 00 00
       -0.0 -0.050719127 0.0 0.0
0001d0 4e cf 96 bd d8 5b 93 bd 00 00 00 00 d7 9e e1 bd
       -0.07363759 -0.07195252 0.0 -0.110166244
0001e0 7d de 7b bd 00 00 00 00 00 00 00 80 00 00 00 00
       -0.06149148 0.0 -0.0 0.0
0001f0 18 f8 79 bd 00 00 00 80 60 0a 89 3d 00 00 00 00
       -0.061027616 -0.0 0.06691432 0.0
000200 04 77 aa 3d 3c e8 48 3d 00 00 00 00 96 9d a6 3d
       0.08323482 0.0490496 0.0 0.08135526
000210 17 4d c4 3d 00 00 00 00 e8 88 19 3d 00 00 00 80
       0.09585016 0.0 0.03748408 -0.0
000220 00 00 00 80 0d 97 69 bd 00 00 00 00 00 00 00 00
       -0.0 -0.05702882 0.0 0.0
000230 00 00 00 80 00 00 00 00 81 32 43 bd 00 00 00 80
       -0.0 0.0 -0.047655586 -0.0
000240 00 00 00 80 6c 45 5d 3d 00 00 00 00 00 00 00 80
       -0.0 0.054021284 0.0 -0.0
000250 00 00 00 80 00 00 00 80 9d f3 11 3e e5 e6 b5 3d
       -0.0 -0.0 0.14253087 0.0888193
000260 00 00 00 00 b3 c3 33 3d 9d ce 1b 3d ca 3e 35 3d
       0.0 0.043887805 0.03803884 0.044249333
000270 00 00 00 80 62 d6 35 3d e8 93 8a 3d 00 00 00 00
       -0.0 0.044393905 0.06766492 0.0
000280 64 80 68 bd 00 00 00 00 65 91 74 bd 00 00 00 00
       -0.056763068 0.0 -0.05970897 0.0
000290 00 00 00 00 00 00 00 00 00 00 00 00 00 00 00 80
       0.0 0.0 0.0 -0.0
0002a0 49 05 ae bd 00 00 00 80 59 db 98 bd 00 00 00 00
       -0.08497102 -0.0 -0.07463712 0.0
0002b0 bd 95 3d 3d 00 00 00 80 f1 93 4f bd 49 8c 58 bd
       0.04628538 -0.0 -0.050678197 -0.05286816
0002c0 70 bb 1d bd 13 eb 19 bd 00 00 00 80 00 00 00 00
       -0.038508832 -0.0375777 -0.0 0.0
0002d0 27 9e 7e bd 0a 7a 1c bd a8 43 7c bd f6 ea 5e bd
       -0.062162545 -0.038202323 -0.06158796 -0.054423295
0002e0 00 00 00 80 db 88 49 bd 21 31 de bd 00 00 00 00
       -0.0 -0.04920278 -0.10849214 0.0
0002f0 00 00 00 00 37 fb 55 bd 00 00 00 00 53 7f 2c bd
       0.0 -0.05224153 0.0 -0.042113613
000300 00 00 00 00 00 00 00 80 00 00 00 80 00 00 00 80
       0.0 -0.0 -0.0 -0.0
000310 00 00 00 80 f4 f1 63 3d 96 60 13 bd 00 00 00 80
       -0.0 0.055650666 -0.035980783 -0.0
000320 00 00 00 00 00 00 00 00 00 00 00 00 68 4a 8a 3d
       0.0 0.0 0.0 0.06752473
000330 00 00 00 00 00 00 00 00 49 05 e3 bd e5 35 17 bd
       0.0 0.0 -0.110849924 -0.036916632
000340 67 10 be bd 00 00 00 80 66 ca 25 bd 67 0f 99 bd
       -0.09280472 -0.0 -0.040476225 -0.07473641
000350 0a f9 8e bd 19 29 53 bd 00 00 00 80 b5 da 72 bd
       -0.06981094 -0.051552866 -0.0 -0.059290607
000360 e1 64 67 3d 00 00 00 00 b3 a3 18 3d 00 00 00 80
       0.05649269 0.0 0.03726549 -0.0
000370 00 00 00 80 00 00 00 00 24 72 29 3d dd b4 3e bd
       -0.0 0.0 0.04136862 -0.046559203
000380 00 00 00 80 ac 17 b6 bd 41 bb 49 bd 9a f8 bd bd
       -0.0 -0.08891234 -0.049250845 -0.092759326
000390 36 f5 33 bd 70 be 3d bd 00 89 18 bd 00 00 00 80
       -0.043935023 -0.046324193 -0.03724003 -0.0
0003a0 00 00 00 80 92 51 4f 3d 79 f1 39 3d 00 00 00 80
       -0.0 0.0506149 0.045396302 -0.0
0003b0 00 00 00 00 00 00 00 00 86 84 e4 3d ce a5 90 3d
       0.0 0.0 0.11158089 0.07062875
0003c0 00 00 00 00 00 00 00 80 7b 1e 83 3d 00 00 00 00
       0.0 -0.0 0.06402298 0.0
0003d0 00 00 00 00 00 00 00 80 56 56 7f bd 00 00 00 00
       0.0 -0.0 -0.062338196 0.0
0003e0 00 00 00 00 2d 54 32 3d 00 00 00 80 00 00 00 80
       0.0 0.043537308 -0.0 -0.0
0003f0 ab 2e bc bd a7 16 a7 bd 94 ef b9 3d c0 a9 84 3d
       -0.09188589 -0.081586175 0.09078899 0.0647769

layer1.0.bn2.weight f4 [64]
000000 94 30 a8 3f 22 3a a5 3f 17 75 af 3f c3 17 f1 3f
       1.3139825 1.2908366 1.3707608 1.8835377
000010 bd f7 d6 3f e6 9b c9 3f c8 20 c4 3f bb df a0 3f
       1.6794354 1.5750701 1.5322504 1.2568277
000020 4b 37 c0 3f c0 d0 91 3f 62 86 c9 3f dd 8c e3 3f
       1.5016874 1.139183 1.5744135 1.7777363
000030 06 e6 98 3f bf a4 cf 3f b4 61 d7 3f b2 db a1 3f
       1.1945198 1.6222152 1.6826692 1.2645171
000040 21 0b b4 3f 1c ff d0 3f 3f 49 a8 3f 48 9f a6 3f
       1.4065896 1.6327853 1.3147353 1.3017359
000050 14 b8 ca 3f 79 ed af 3f 81 cd 9b 3f ce 78 a3 3f
       1.5837426 1.3744346 1.217209 1.2771242
000060 b5 0f a5 3f 04 c6 bd 3f 81 60 da 3f d6 c6 b3 3f
       1.2895418 1.4826055 1.7060701 1.4045055
000070 f9 1d d7 3f 22 cc 9c 3f 6e 14 cd 3f a2 37 c0 3f
       1.6806022 1.2249796 1.602186 1.5016978
000080 b4 e7 ad 3f ec aa cc 3f 67 f4 b0 3f 7e 83 cd 3f
       1.3586335 1.5989661 1.3824586 1.6055753
000090 4c b5 b3 3f 78 a8 ac 3f 73 25 f4 3f 9f 00 df 3f
       1.4039702 1.3488913 1.9073929 1.7422065
0000a0 dc c3 a7 3f 0a 08 c4 3f ff f0 aa 3f 13 fb cf 3f
       1.3106647 1.5314953 1.3354796 1.6248497
0000b0 28 57 d1 3f 13 09 b0 3f 76 ae bd 3f 07 ef b6 3f
       1.6354723 1.3752769 1.4818866 1.4291695
0000c0 9a a5 b9 3f f2 19 d2 3f 31 c2 e8 3f 73 28 b0 3f
       1.4503663 1.6414168 1.8184263 1.3762344
0000d0 78 49 b9 3f 4c 5a b1 3f 0f bd 9c 3f c7 70 9a 3f
       1.4475546 1.3855681 1.2245196 1.2065667
0000e0 71 cc f3 3f 8d 67 ee 3f 12 ed b4 3f 6a 60 ac 3f
       1.9046766 1.8625351 1.4134848 1.3466923
0000f0 1d 62 c5 3f 40 90 c4 3f 31 7d ec 3f 39 aa ab 3f
       1.5420567 1.5356522 1.8475705 1.3411323

layer1.0.bn2.bias f4 [64]
000000 39 a7 cb 3d 98 fe c7 3d 4c 19 27 3e eb 7a 00 3d
       0.099440046 0.09765357 0.16318244 0.031367224
000010 ed 21 de bc 90 e3 30 bd 25 fb a6 3d 39 08 bb bd
       -0.027115786 -0.04318577 0.08153371 -0.09132428
000020 f2 a8 b6 3d 81 c2 d0 3d d6 4b 65 3d 2a 88 b3 bd
       0.089189425 0.10193349 0.055980526 -0.087662056
000030 d7 88 6e 3c 55 b8 d1 bb 63 1b b9 bd d1 e5 98 3e
       0.014558992 -0.006400148 -0.09038427 0.29862836
000040 8b 24 12 3e 88 1b 0a 3e 98 98 96 3d eb 94 53 3e
       0.14271753 0.13487065 0.07353324 0.20662276
000050 b1 4a a2 3d cb a9 10 bd 12 7d af 3c cc 72 c1 3d
       0.079244025 -0.035318177 0.021421943 0.09445724
000060 48 68 0d 3e a8 57 8c 3d c7 a4 82 3e d4 88 d3 3d
       0.13809311 0.068526566 0.2551634 0.10328832
000070 37 bf 7e bd 04 99 3f 3e c5 ec b7 3d 72 d2 9b 3e
       -0.062194075 0.18710715 0.08980707 0.30433995
000080 79 b0 4a 3e b8 ee 80 3d 57 39 17 bd a7 dd dc 3d
       0.19793881 0.06295532 -0.036919918 0.10784464
000090 25 3e 07 bd 84 00 5f 3d 64 b3 a7 bd 16 7b bc 3c
       -0.03301825 0.05444385 -0.08188513 0.02300791
0000a0 84 a9 42 3e ba 38 e1 bd ae 43 3f 3e be 48 d6 3c
       0.19009978 -0.10997148 0.18678162 0.026157733
0000b0 ce a3 1c be f6 c7 1f 3d 15 32 29 be 78 fd 0a 3e
       -0.15296862 0.039009057 -0.16523011 0.13573253
0000c0 63 c4 04 bd 7b 72 1a 3e 38 37 81 bd 89 6b 87 3c
       -0.03241385 0.15082733 -0.0630936 0.016530769
0000d0 b1 42 13 3e 56 9c ef 3d 44 98 09 3d c5 cc 87 3d
       0.1438091 0.116997406 0.033592477 0.066308536
0000e0 f4 64 13 be af b0 f1 bd 8e ce 01 3e 9e b8 e0 3d
       -0.1439398 -0.11801278 0.1267645 0.10972713
0000f0 36 99 12 3e 06 63 a3 3d d4 09 8e bd 6a 59 f8 b9
       0.14316258 0.079778716 -0.06935468 -0.00047368865

layer1.0.bn2.running_mean f4 [64]
000000 3d f2 0a bf 7e e2 24 be 4d a6 ae be 11 0e 60 be
       -0.54275876 -0.16102025 -0.34111252 -0.21880366
000010 54 12 cf bd df da e7 be 96 a6 3b bf 4d b9 01 be
       -0.10110918 -0.45284173 -0.73301065 -0.12668343
000020 9c 47 74 bd e8 5d 2d 3e 74 03 24 3e 06 d4 d8 be
       -0.059638605 0.16930354 0.16016942 -0.4234926
000030 57 ba ac be 2a 0f 31 be 91 7d eb be cf 70 68 be
       -0.33735916 -0.17290941 -0.45994237 -0.22699283
000040 48 23 bb be e6 f5 92 be 09 60 2f be 0a f0 9e be
       -0.36550355 -0.2870323 -0.17126478 -0.3104251
000050 e2 c2 67 bd 7e 5f ce 3d 12 f1 34 bd 8d 11 d5 3d
       -0.05658234 0.100768074 -0.044175215 0.10403738
000060 11 65 83 be cb 62 e4 be 2c e4 a8 be a0 03 c3 be
       -0.25663045 -0.44606623 -0.3298658 -0.38088703
000070 48 e1 99 be 31 b6 b4 be 07 ac 26 3e 9d 73 99 3e
       -0.30054688 -0.3529525 0.1627656 0.29971018
000080 f7 16 30 be ce 3b 09 bf dd 59 dd be 81 b4 de be
       -0.1719626 -0.5360688 -0.43232623 -0.4349709
000090 8b 06 03 3f 37 10 ea bd 4e a1 53 be 00 11 24 bf
       0.5118186 -0.11428874 -0.20667002 -0.6408844
0000a0 20 a1 92 3d 83 68 22 be 74 e1 c3 3e 3c eb e9 be
       0.071596384 -0.1586018 0.38257945 -0.45687282
0000b0 b6 a1 25 bf 8a e5 e4 bd f6 c7 de be 68 f9 c5 bc
       -0.64699876 -0.111765936 -0.43511933 -0.024166778
0000c0 cf 7a ca be b5 15 e5 be 39 a0 13 be 6f c8 c8 be
       -0.3954682 -0.44743124 -0.14416589 -0.3921542
0000d0 3b 9b 3a bf d9 0f 54 bf 4a 65 b7 3d be 0f 39 be
       -0.7289311 -0.8283668 0.08954866 -0.18072411
0000e0 b3 bd e4 be b1 aa 1f 3e a1 d2 e5 be 51 96 d8 be
       -0.4467598 0.15592457 -0.4488726 -0.42302182
0000f0 c1 24 59 be 77 53 a0 be a1 96 27 bf 1a 28 92 bb
       -0.21205427 -0.3131368 -0.65464216 -0.004460347

layer1.0.bn2.running_var f4 [64]
000000 76 bb 0d 3e ba 57 61 3e 24 12 42 3e e4 e9 8f 3e
       0.13841042 0.22006121 0.18952233 0.28108132
000010 21 ae 7b 3e 51 06 64 3e 00 a2 4f 3e f4 61 28 3e
       0.24578144 0.22268035 0.20276642 0.16443616
000020 fd 50 52 3e f2 55 0e 3e 43 01 95 3e 53 fa 93 3e
       0.20538707 0.13899973 0.29102525 0.2890192
000030 d8 4e 35 3e bb e4 a6 3e 97 c0 65 3e 73 38 3d 3e
       0.17705858 0.32596382 0.22436748 0.18478565
000040 0b 62 71 3e 12 52 84 3e dd 10 14 3e de 4e 22 3e
       0.23572557 0.25843865 0.14459558 0.15850398
000050 31 bc 81 3e 6f ee 47 3e 9a cd 05 3e e1 91 21 3e
       0.2533889 0.19524549 0.13066712 0.15778305
000060 cb 3e 2d 3e f5 2d 6e 3e d1 0a 70 3e 24 0e 4b 3e
       0.16918485 0.23259719 0.23441626 0.19829613
000070 bc 79 80 3e 5b 84 2c 3e e7 a0 81 3e 92 f9 7a 3e
       0.25092876 0.16847365 0.2531807 0.24509266
000080 07 03 4d 3e 97 f8 a4 3e 42 c7 26 3e 8a 00 6a 3e
       0.20020686 0.3222091 0.16286948 0.22851768
000090 ee 1b 8a 3e 35 e8 48 3e b2 c8 a5 3e 70 c9 84 3e
       0.26974434 0.1961983 0.3237968 0.25934935
0000a0 56 11 66 3e 5a bf 71 3e 06 3d 55 3e 7d 2e 5e 3e
       0.2246755 0.23608151 0.2082406 0.21697421
0000b0 95 1a 88 3e 05 b6 38 3e 01 da 46 3e 24 58 44 3e
       0.2658278 0.18038185 0.194191 0.19174248
0000c0 64 5a 5c 3e 9a 54 7b 3e 12 05 8f 3e 45 bc 54 3e
       0.21518856 0.24543992 0.27933556 0.20774944
0000d0 be db 42 3e 26 96 89 3e a3 c3 e6 3d 84 1f 05 3e
       0.19029137 0.26872367 0.112677835 0.13000304
0000e0 49 f9 88 3e 5f 00 c7 3e b6 9b 67 3e 61 34 57 3e
       0.2675269 0.3886747 0.22617993 0.21016075
0000f0 f4 5d 91 3e b5 0d 71 3e 0f 8e a9 3e 1f ef 4c 3e
       0.28391993 0.23540385 0.33116195 0.20013092

fc.bias f4 [100]
000000 64 4f ad 3b 9c 82 08 3d 1d fa 7c bd 0f 27 1c 3d
       0.005289005 0.033327684 -0.061761964 0.038123187
000010 ac 42 ff bd ba 49 06 bd dc d6 23 bd 8d d3 88 3e
       -0.124638885 -0.032785155 -0.039999828 0.267239
000020 4b a6 33 bd 30 bc bc bd 6a 13 53 3d 73 30 8d 3d
       -0.04385976 -0.092155814 0.051532187 0.068940066
000030 f6 f4 05 3d a2 49 e9 bd 0e 5f 1e bd 5f 3f 87 bd
       0.032704316 -0.113909975 -0.03866487 -0.06603884
000040 23 39 88 bd 25 db fb bd 5f ce b2 3d 66 9d 06 bd
       -0.06651523 -0.12297658 0.087307684 -0.03286495
000050 b9 c9 ae 3b c7 e7 2b bc 32 97 c8 bc 82 d6 67 3d
       0.005334106 -0.010492272 -0.024486158 0.056601055
000060 6a b9 2b 3d 4a 17 0d bd 9d 85 45 3e c3 50 57 bd
       0.04192487 -0.03444604 0.1928925 -0.052567255
000070 97 94 46 ba ca e2 8b 3c ef 82 0d 3e 73 b3 56 3c
       -0.0007575242 0.017075915 0.13819478 0.013104307
000080 65 d0 bc bc 37 ca f0 3c c8 76 bd 3d dc 0f 4c 3d
       -0.023048589 0.029393299 0.09251171 0.049819812
000090 9e 33 15 bc 40 9f 11 3e 70 91 f5 3d df a7 2c 3d
       -0.009106545 0.14220905 0.119906306 0.04215228
0000a0 8f 23 08 3d 1e 06 3a bd 6a c2 83 3d 09 e9 5a 3d
       0.033237036 -0.04541599 0.06433566 0.053444896
0000b0 9c 64 60 bd 95 af 55 3e 79 be e6 bc 39 02 d5 bd
       -0.05478345 0.2086776 -0.028166996 -0.104008146
0000c0 87 d9 64 bd 58 90 41 bd 76 bc 5d bd 20 50 8c 3d
       -0.055871513 -0.047256798 -0.05413481 0.0685122
0000d0 ec 04 c9 bd b9 29 fd bc b1 92 33 bd ee e8 07 3e
       -0.09815392 -0.030903684 -0.043841068 0.1327245
0000e0 4f f1 23 bc 64 d0 86 bd 91 5a a7 3d 9c e0 00 bd
       -0.010006263 -0.06582716 0.08171571 -0.031464204
0000f0 f3 a3 b5 3d 5f b1 3e 3d c8 ed 01 3e 52 2b 12 3d
       0.088691615 0.046555873 0.12688363 0.035685845
000100 93 23 d1 3d 5b 20 d8 3d 9a 55 a4 bd 1d 9e 13 3d
       0.10211863 0.10553046 -0.0802414 0.03603946
000110 63 dc a0 bc 26 35 cf bd 17 5a c5 bd 0e 4c a8 3a
       -0.019636339 -0.10117559 -0.09636324 0.0012840049
000120 3c cf 59 3d a1 95 92 3d 02 8d 6d 3e 33 d7 01 be
       0.05317615 0.07157446 0.23198321 -0.12679748
000130 9d f8 d5 bd 51 68 45 3d b1 fe 62 bd 34 f4 77 bd
       -0.1044781 0.048195187 -0.055418674 -0.060535625
000140 ed 7b 05 bd 85 62 88 bd 4b fb 27 3e 75 e2 21 3d
       -0.032588888 -0.06659416 0.16404454 0.039522607
000150 63 f8 8c bc c3 19 93 3d b7 ee 36 3c e0 d3 8b bd
       -0.017208284 0.07182648 0.0111653125 -0.06827521
000160 e8 c9 d4 bc f9 a1 a7 3d b8 15 a7 bc e9 d7 27 3d
       -0.025975183 0.08185191 -0.020396098 0.040977392
000170 92 b4 9a bd 4e 3e 10 3d 4e bf f6 bc 90 14 cb bd
       -0.07553972 0.03521567 -0.030120518 -0.09916031
000180 8f 9f 5d bc 48 7f e3 3d 3c 44 80 3d d9 61 33 3b
       -0.013526811 0.11108261 0.06263015 0.0027371554

fc.weight f4 [100, 64]
000000 00 00 00 00 08 ba 7e bd 08 c3 99 bd 00 00 00 80
       0.0 -0.062189132 -0.075079024 -0.0
000010 5a e5 cb bd 00 00 00 80 29 92 d0 bd 6b 39 91 bd
       -0.09955855 -0.0 -0.10184128 -0.0709103
000020 00 00 00 80 00 00 00 00 d1 b8 ed bd 00 00 00 00
       -0.0 0.0 -0.116075166 0.0
000030 00 00 00 80 00 00 00 00 2c 1c a0 bd 00 00 00 00
       -0.0 0.0 -0.07817873 0.0
000040 62 44 7c bd 00 00 00 80 00 00 00 00 00 00 00 00
       -0.061588652 -0.0 0.0 0.0
000050 00 00 00 80 ab af bc bd d0 e7 cf bd 00 00 00 80
       -0.0 -0.092131935 -0.101516366 -0.0
000060 00 00 00 80 00 00 00 00 95 50 81 bd 00 00 00 00
       -0.0 0.0 -0.06314198 0.0
000070 00 00 00 80 00 00 00 00 33 36 a1 bd eb e1 87 bd
       -0.0 0.0 -0.07871666 -0.06634887
000080 fc 43 d7 bd 9a 6f a2 bd 00 00 00 00 00 00 00 80
       -0.10511014 -0.079314426 0.0 -0.0
000090 f4 97 d5 bd 00 00 00 00 b7 df d9 bd 00 00 00 00
       -0.104293734 0.0 -0.10638373 0.0
0000a0 00 00 00 00 00 00 00 80 b3 bb e8 bd 00 00 00 80
       0.0 -0.0 -0.11363926 -0.0
0000b0 28 07 87 3d 00 00 00 00 76 b6 a4 bd 00 00 00 80
       0.06593162 0.0 -0.08042614 -0.0
0000c0 00 00 00 00 00 00 00 00 4c 21 e8 bd 00 00 00 00
       0.0 0.0 -0.11334476 0.0
0000d0 41 62 d1 bd 00 00 00 00 00 00 00 80 00 00 00 80
       -0.102238186 0.0 -0.0 -0.0
0000e0 00 00 00 80 00 00 00 80 00 00 00 80 32 d0 88 3d
       -0.0 -0.0 -0.0 0.06680335
0000f0 bf 4d e5 bd 00 00 00 80 00 00 00 80 00 00 00 00
       -0.111964695 -0.0 -0.0 0.0
000100 52 af cf bd 00 00 00 80 65 c4 94 3e af de 12 bf
       -0.101408616 -0.0 0.29056087 -0.5737104
000110 00 00 00 00 17 85 08 3f cc bc bd 3e d4 e1 02 bf
       0.0 0.5332808 0.37058103 -0.51125836
000120 91 cb 82 bd 00 00 00 00 d3 fe 02 3f 1e 2c de 3e
       -0.063864835 0.0 0.5117008 0.43393034
000130 4e 12 b5 be c6 63 c3 3e 20 e9 1e be 00 00 00 80
       -0.35365528 0.3816206 -0.15518618 -0.0
000140 00 00 00 80 95 c4 68 be 70 c0 50 be d4 03 17 be
       -0.0 -0.2273124 -0.20385909 -0.14747554
000150 00 00 00 80 39 09 b8 be 53 b3 8f be 00 00 00 00
       -0.0 -0.35944536 -0.280665 0.0
000160 5f d0 c0 bd 02 0f ab 3e 00 00 00 80 15 5a b0 bd
       -0.09414744 0.33409888 -0.0 -0.08610932
000170 fd 57 e2 3e d8 c5 26 3e bf b7 f1 3d 33 32 74 3e
       0.44207755 0.16286409 0.11802625 0.23847274
000180 ad 82 5f 3e e6 98 e8 be ab 51 0d be 51 37 62 be
       0.21827193 -0.45429152 -0.13800685 -0.22091414
000190 31 94 c8 bd 10 07 a5 be 9f 6c e0 3d 12 7f 04 3f
       -0.0979389 -0.3223195 0.10958218 0.51756394
0001a0 9d 0e e6 bd 5c 5e 80 3d b8 82 e3 bd 24 a9 2a 3f
       -0.11233256 0.062679976 -0.11108917 0.6666434
0001b0 3d 1a 84 3e d7 0f 92 3d a7 c7 28 3f 3a ce c1 3e
       0.25801268 0.071319275 0.65929645 0.3785265
0001c0 65 04 2c 3f 0e f4 dc be 48 25 91 be 0c 34 f1 3e
       0.67194206 -0.4315495 -0.28348756 0.4711002
0001d0 d7 a9 e2 bd 00 00 00 00 f8 44 89 3e 00 00 00 00
       -0.11067551 0.0 0.2681043 0.0
0001e0 61 e9 0a 3f 92 ac e6 bd 9d 6c 18 3f 2b ba 43 3e
       0.5426236 -0.11263384 0.5954073 0.19113986
0001f0 12 9e f6 3e 3e 2a e5 be 00 00 00 00 ea 50 8b be
       0.48167473 -0.4475879 0.0 -0.2721017
000200 00 00 00 80 00 00 00 00 00 00 00 80 00 00 00 80
       -0.0 0.0 -0.0 -0.0
000210 de dd b6 bd 00 00 00 80 99 8b a9 bd 00 00 00 80
       -0.089290366 -0.0 -0.08278579 -0.0
000220 a2 34 e8 bd 00 00 00 00 00 00 00 80 00 00 00 00
       -0.11338164 0.0 -0.0 0.0
000230 00 00 00 00 00 00 00 80 00 00 00 80 00 00 00 00
       0.0 -0.0 -0.0 0.0
000240 5f 26 93 bd 00 00 00 80 00 00 00 80 00 00 00 80
       -0.07185053 -0.0 -0.0 -0.0
000250 aa bb c4 bd f4 82 92 3d 00 00 00 00 00 00 00 80
       -0.096061066 0.071538836 0.0 -0.0
000260 f7 0b e2 bd 00 00 00 80 00 00 00 80 00 00 00 80
       -0.11037438 -0.0 -0.0 -0.0
000270 00 00 00 00 08 18 be bd 00 00 00 80 e6 80 a8 bd
       0.0 -0.09281927 -0.0 -0.082277104
000280 00 00 00 00 00 00 00 80 00 00 00 80 00 00 00 00
       0.0 -0.0 -0.0 0.0
000290 00 00 00 80 00 00 00 00 00 00 00 80 00 00 00 80
       -0.0 0.0 -0.0 -0.0
0002a0 00 00 00 80 33 a0 d0 bd 90 12 91 bd a4 00 80 bd
       -0.0 -0.101868056 -0.07083619 -0.06250122
0002b0 00 00 00 80 00 00 00 80 40 30 7e bd 6f 82 dc bd
       -0.0 -0.0 -0.062057734 -0.10767066
0002c0 00 00 00 00 00 00 00 80 98 5c 79 bd cb 6b 84 3d
       0.0 -0.0 -0.06087932 0.064658724
0002d0 fb 6d c4 bd 00 00 00 00 00 00 00 80 7b 01 bf bd
       -0.095912896 0.0 -0.0 -0.09326454
0002e0 00 00 00 00 84 ed e6 bd 00 00 00 00 00 00 00 00
       0.0 -0.11275771 0.0 0.0
0002f0 a3 d9 ee bd 00 00 00 80 d9 5c 8b bd 12 71 d8 bd
       -0.11662605 -0.0 -0.06804819 -0.105684415
000300 00 00 00 00 00 00 00 80 00 00 00 00 00 00 00 00
       0.0 -0.0 0.0 0.0
000310 00 00 00 80 00 00 00 80 00 00 00 00 00 00 00 00
       -0.0 -0.0 0.0 0.0
000320 00 00 00 80 00 00 00 00 66 56 d5 bd 00 00 00 00
       -0.0 0.0 -0.1041687 0.0
000330 f3 9c 7b bd 00 00 00 80 00 00 00 00 00 00 00 00
       -0.061428975 -0.0 0.0 0.0
000340 ac a8 80 3d 93 c5 92 bd 00 00 00 80 ba cd 9d bd
       0.062821716 -0.071665905 -0.0 -0.07705255
000350 1e 2b cc bd 00 00 00 80 00 00 00 00 00 00 00 80
       -0.099691615 -0.0 0.0 -0.0
000360 08 64 9f bd 72 35 d0 bd 67 e8 dd bd ff d6 cb bd
       -0.07782751 -0.10166444 -0.10835343 -0.099531166
000370 11 43 ea bd 00 00 00 00 00 00 00 80 00 00 00 00
       -0.11438573 0.0 -0.0 0.0
000380 00 00 00 00 f4 4f d8 bd 00 00 00 80 00 00 00 00
       0.0 -0.10562125 -0.0 0.0
000390 00 00 00 00 00 00 00 00 00 00 00 80 37 62 96 bd
       0.0 0.0 -0.0 -0.07342952
0003a0 3a 8e 83 3d 6b cf d4 bd 5e 44 01 be 00 00 00 80
       0.06423612 -0.10391124 -0.12623736 -0.0
0003b0 00 00 00 80 00 00 00 00 fe e6 bc bd 00 00 00 00
       -0.0 0.0 -0.09223746 0.0
0003c0 76 8e c2 bd dc 18 9e bd 73 72 bb bd 31 f1 7d bd
       -0.094998285 -0.07719585 -0.09152689 -0.061997596
0003d0 2b 00 bd bd 2b 0a af bd 00 00 00 00 99 0d d4 bd
       -0.09228548 -0.08546861 0.0 -0.10354156
0003e0 00 00 00 00 00 00 00 80 1b ea cd bd 2d d4 cb bd
       0.0 -0.0 -0.10054418 -0.09952579
0003f0 00 00 00 00 66 0a ea bd 00 00 00 00 00 00 00 00
       0.0 -0.114277646 0.0 0.0
